chatbot/data.pth (torch, 12127 bytes, 6 tensors)

l1.weight f4 [8, 208]
0	0xbe9f8efb	-0.31163773
1	0x3e152af1	0.14567162
2	0xbdd15fcb	-0.10223349
3	0xbe35c496	-0.17750773
4	0xbe560057	-0.20898567
5	0xbd944b87	-0.07240968
6	0xbd94a53b	-0.07258078
7	0xbe1be329	-0.15223373
8	0xbe396367	-0.18104325
9	0xbd41cab4	-0.047312453
10	0x3f0d47d0	0.551877
11	0x3d309a85	0.04311611
12	0xbd907044	-0.07052663
13	0xbdc7fb2f	-0.09764706
14	0xbda3791e	-0.07982086
15	0x3edaf0cc	0.42761838
16	0x3d5a15b0	0.05324334
17	0x3daeaab0	0.0852865
18	0x3e3aed95	0.18254693
19	0x3d958073	0.0729989
20	0x3e384e56	0.17998633
21	0x3e5b7432	0.21431044
22	0x3b75d3a0	0.0037510172
23	0x3e5367d4	0.20645076
24	0xbdc3304f	-0.095306985
25	0xbe46fa45	-0.19431408
26	0x3cb5d767	0.022197438
27	0x3e225da5	0.15856035
28	0x3e5b1347	0.21394072
29	0x3ec9462d	0.39311352
30	0x3e6ee697	0.2333015
31	0xbd056a37	-0.032571997
32	0x3e67096c	0.22562188
33	0xbd8e3c3f	-0.06945085
34	0x3df56890	0.11982834
35	0x3ee1db0e	0.44112438
36	0x3e5d73bc	0.2162618
37	0x3e8fc46e	0.2807955
38	0x3de3144d	0.110878564
39	0x3cdaf0d7	0.02672617
40	0xbdac2dbd	-0.084071614
41	0x3e6c18f2	0.23056391
42	0x3eee8e79	0.46593073
43	0xbe9344f5	-0.28763548
44	0xbdcc5d4c	-0.099787325
45	0x3e4d3893	0.20041113
46	0xbd0e2d28	-0.034711033
47	0x3e9f35e5	0.31095806
48	0x3e1ad18d	0.15119
49	0x3ddf951f	0.109171145
50	0x3dd72a10	0.1050607
51	0xbe1eeee4	-0.15520817
52	0xbbd3b55c	-0.0064608287
53	0xbdbcc4a3	-0.09217193
54	0x3d78287e	0.06058549
55	0xbe203202	-0.15644076
56	0x3ecb85d2	0.39750534
57	0x3e80bfdb	0.25146374
58	0xbd478be8	-0.04871741
59	0x3da1eb27	0.0790618
60	0x3e1214fc	0.14265817
61	0x3e9aa775	0.30205885
62	0x3d9ce1ab	0.0766023
63	0xbcd9a172	-0.026566241
64	0x3db22691	0.08698762
65	0xbeacab26	-0.33724326
66	0x3eb1f526	0.34757346
67	0x3e020a50	0.12699246
68	0x3da8b775	0.08238117
69	0x3ed967a1	0.42461875
70	0x3e234866	0.15945587
71	0x3e65d741	0.22445394
72	0x3e86b8bf	0.26312825
73	0x3c225a70	0.009909257
74	0xbea2e996	-0.31818837
75	0x3ebcb764	0.36858666
76	0x3e3c63f6	0.18397507
77	0x3e331bb0	0.1749103
78	0x3e46af4b	0.19402806
79	0x3ed9cacb	0.4253753
80	0xbcaf4e75	-0.021399716
81	0x3ee674d8	0.4501102
82	0x3f0ee6e4	0.5582106
83	0x3e5334b9	0.20625581
84	0x3ea4a507	0.32157156
85	0x3e7d529b	0.24738543
86	0xbd5b9da8	-0.05361715
87	0x3edf2ff9	0.43591288
88	0x3e3d8fab	0.18511836
89	0xbe34a2b8	-0.17640197
90	0xbe7299fa	-0.2369155
91	0x3e658f37	0.22417913
92	0xbbef644d	-0.007305658
93	0xbd2cd40e	-0.04219442
94	0x3d9f46ae	0.07777153
95	0x3e0d3bfa	0.1379241
96	0x3e8c71d1	0.27430585
97	0x3e808249	0.250994
98	0x3dc0d15e	0.094149336
99	0x3ec07e5f	0.37596413
100	0x3e3677f6	0.17819199
101	0x3e83a251	0.25709775
102	0x3e0e01d4	0.13867885
103	0x3ec743f9	0.38919047
104	0xbd6eaf95	-0.058272917
105	0xbe4be803	-0.19912724
106	0x3e024c49	0.12724413
107	0x3d9d35ce	0.07676278
108	0x3df447f9	0.1192779
109	0x3e1284a8	0.14308417
110	0x3e03db47	0.12876616
111	0x3ea1b7dd	0.3158559
112	0xbdb30298	-0.08740729
113	0x3e26f51a	0.16304436
114	0xbdd097e2	-0.10185219
115	0x3ecc7513	0.3993307
116	0xbdedb9b2	-0.11607684
117	0x3de273cc	0.11057243
118	0x3e2fee0e	0.17180654
119	0xbe32916d	-0.17438288
120	0x3e373eff	0.17895125
121	0x3eb557b6	0.3541848
122	0xbe18b396	-0.14912257
123	0xbe233b78	-0.15940654
124	0xbdba6aaf	-0.091023795
125	0x3e341a57	0.17588173
126	0x3ebdedce	0.37095493
127	0x3e1d0ced	0.15336962
128	0xbe815854	-0.25262702
129	0xbeabb1fb	-0.33534226
130	0xbea2f5a7	-0.31828043
131	0x3de01016	0.10940568
132	0x3e0fca92	0.14042118
133	0x3e53a751	0.20669295
134	0x3e8ea5f9	0.27861002
135	0xbdf751c2	-0.12076141
136	0xbdf1656f	-0.11786925
137	0x3dad3891	0.08458055
138	0x3d714eb7	0.05891296
139	0xbe87838a	-0.26467544
140	0x3e0bb568	0.1364342
141	0xbe0a84ae	-0.13527176
142	0x3e8da5a7	0.27665445
143	0x3e2a26a8	0.16616309
144	0x3d50faf8	0.051020592
145	0x3e3f3b02	0.18674853
146	0x3df0db30	0.11760557
147	0x3f055ad8	0.5209174
148	0x3ee12a1c	0.4397744
149	0xbc80052e	-0.01562747
150	0x3e9d5daf	0.30735537
151	0x3ee75433	0.45181426
152	0xbddf6e06	-0.10909657
153	0xbd8b8f35	-0.06814424
154	0xbd87725e	-0.06613611
155	0xbe1e41c2	-0.15454772
156	0x3e89ba81	0.26900104
157	0x3e793eca	0.24340358
158	0xbe3ef16b	-0.18646781
159	0xbdf28487	-0.11841684
160	0x3e45273c	0.19253248
161	0xbd3ba83c	-0.045814738
162	0x3e2d1219	0.16901435
163	0xbeb1e0b6	-0.34741753
164	0xbdafb46c	-0.085793346
165	0x3ded931f	0.11600327
166	0xbe20d534	-0.1570633
167	0x3dc76c40	0.09737444
168	0xbe808edf	-0.25109002
169	0x3d8dd092	0.06924547
170	0x3e967a8f	0.2939038
171	0x3e1a7484	0.1508351
172	0x3c11abd2	0.008891063
173	0x3e0fce0a	0.14043441
174	0x3ddd1db3	0.1079668
175	0x3e180f0d	0.14849491
176	0x3dd06b6c	0.10176739
177	0x3dec864f	0.11549055
178	0x3d56436e	0.0523104
179	0x3de37a4b	0.1110731
180	0x3d5304c9	0.051518235
181	0xbe06edc4	-0.13176638
182	0x3e22f863	0.15915065
183	0x3e0b0054	0.13574344
184	0x3ecc4999	0.398999
185	0x3d161ebd	0.036650408
186	0x3dfa34c7	0.12217098
187	0xbd5d223b	-0.053987723
188	0xbd3a92de	-0.04555022
189	0x3e76a212	0.24085262
190	0x3eafc208	0.34327722
191	0xbd72d711	-0.059287135
192	0x3de5bd78	0.11217779
193	0x3e83f1b2	0.25770336
194	0x3e78da0d	0.2430193
195	0x3d8263a5	0.06366662
196	0x3e5fd0f9	0.2185706
197	0xbde428aa	-0.111405686
198	0x3d0ef83e	0.03490471
199	0x3e4d7c6a	0.20066991
200	0x3e9fe0c6	0.31226176
201	0x3ed45448	0.41470551
202	0xbe4f1cf0	-0.20225883
203	0x3e0f29c9	0.13980784
204	0x3e405656	0.18782935
205	0x3c95a46d	0.01826688
206	0x3dcfd6c8	0.10148388
207	0x3e274883	0.16336255
208	0xbdf5cedf	-0.12002348
209	0xbcd043e2	-0.025422994
210	0xbdf1eaea	-0.118123844
211	0xbbb47582	-0.005507172
212	0xbdc65192	-0.09683527
213	0xbd3aba8c	-0.04558806
214	0xbd69704b	-0.056991857
215	0xbd1c0bf6	-0.038097344
216	0xbe3fe285	-0.18738754
217	0x3cdd8efc	0.02704572
218	0x3ef3bf30	0.47606802
219	0xbc1fd46e	-0.009755237
220	0xbd929e6c	-0.07159123
221	0xbdc4eb9d	-0.09615252
222	0xbd44dd76	-0.048062764
223	0x3d5015da	0.05080209
224	0x3cb83e9e	0.022490796
225	0x3cf13b04	0.029447086
226	0x3e1e9966	0.15488204
227	0xbd66695c	-0.056252822
228	0x3e5441ab	0.20728175
229	0xbe2b0e5a	-0.16704693
230	0x3d00a21b	0.031404596
231	0x3ead730e	0.33876842
232	0xbddb7f9d	-0.107177
233	0xbe3c31a4	-0.18378311
234	0xbda06c2b	-0.078331314
235	0x3d74d98e	0.05977779
236	0x3dd3c1a0	0.103396654
237	0x3ecf0aeb	0.40438017
238	0x3e0af75e	0.13570926
239	0xbd0671a8	-0.032823235
240	0x3dc15062	0.0943916
241	0xbdc45f4a	-0.095884874
242	0xbdcacd40	-0.099024296
243	0x3e1000c9	0.140628
244	0xbd2133ca	-0.03935603
245	0x3d0e2159	0.03469977
246	0x3d3ba26b	0.04580919
247	0xbc995798	-0.018718526
248	0xbdc3aa3e	-0.095539555
249	0xbd5a2b5d	-0.05326401
250	0xbe87bf81	-0.26513293
251	0xbe9cc6e4	-0.30620492
252	0xbdff65c3	-0.124705814
253	0xbe42961b	-0.19002573
254	0xbe0fd31e	-0.14045379
255	0xbdd65ed1	-0.104673035

l1.bias f4 [8]
0	0x3ea2f91d	0.31830683
1	0x3e92867d	0.2861823
2	0x3e983eb0	0.29735327
3	0x3eaec9f4	0.34138453
4	0x3eb6d995	0.35712877
5	0x3f425b3a	0.7592045
6	0x3ef86ec9	0.48522022
7	0x3f15f547	0.5857739

l2.weight f4 [8, 8]
0	0x3eeae182	0.45875174
1	0x3f5c9398	0.8616271
2	0x3f70d9bf	0.94082254
3	0x3e8c388f	0.273869
4	0x3f32b1c7	0.69802517
5	0x3f9057ac	1.1276755
6	0x3f0893a5	0.5335029
7	0xbea9bce5	-0.33151928
8	0x3f6c7cce	0.92377937
9	0x3f4a94c8	0.7913327
10	0x3f13682c	0.5758083
11	0x3d659fe7	0.056060698
12	0x3ebeeb7f	0.37289044
13	0xbda7c6e5	-0.08192233
14	0xbee456d5	-0.44597498
15	0x3f6e93b1	0.9319411
16	0xbf613ae1	-0.8798047
17	0xbf076dce	-0.52901924
18	0xbf3893bb	-0.7210042
19	0x3f558374	0.83403707
20	0x3edc7818	0.43060374
21	0x3e3484b7	0.17628752
22	0x3f4db32d	0.80351526
23	0x3e9755f6	0.2955777
24	0x3f1e2725	0.6177848
25	0xbeda2859	-0.42608908
26	0xbe06bb1c	-0.13157314
27	0xbf361160	-0.7112026
28	0xbf49b3bb	-0.7878987
29	0x3e8b3399	0.27187803
30	0xbda638aa	-0.081162766
31	0x3f5c073f	0.85948557
32	0x3f0b44de	0.5440196
33	0xbf131cbf	-0.5746574
34	0xbea60f45	-0.32433525
35	0xbd96ef44	-0.07369855
36	0xbda57c92	-0.080804005
37	0xbec26d70	-0.3797412
38	0xbede4aac	-0.43416345
39	0x3f63a190	0.889184
40	0x3e4656a9	0.19368996
41	0x3ec9ef97	0.39440605
42	0x3e81c12a	0.25342685
43	0x3f6e92c1	0.9319268
44	0x3f509151	0.81471735
45	0xbecb9977	-0.39765522
46	0x3f542154	0.82863355
47	0xbe8397de	-0.25701803
48	0xbdc59fda	-0.0964963
49	0xbf1b1ec4	-0.6059382
50	0xbf2de785	-0.67931396
51	0x3f4cc62c	0.79989886
52	0x3ec90392	0.39260536
53	0xbf6aa7cc	-0.9166229
54	0x3f52250e	0.8208779
55	0x3f8896f9	1.0671073
56	0xbf77df7a	-0.96825373
57	0xbf026bf9	-0.50946003
58	0xbef261ba	-0.47340184
59	0xbf4811b7	-0.7815203
60	0xbe906f12	-0.2820974
61	0x3fba0e21	1.4535562
62	0x3eb3c472	0.35110813
63	0x3ed67d44	0.41892445

l2.bias f4 [8]
0	0xbe25d9d6	-0.16196379
1	0xbc14bb58	-0.009077869
2	0x3f02f4b6	0.5115465
3	0x3f2421d0	0.64114094
4	0x3ea322ff	0.31862637
5	0x3e118859	0.14212169
6	0x3e9c28fb	0.30500016
7	0x3f296f1c	0.66185164

l3.weight f4 [4, 8]
0	0x3f205027	0.626223
1	0x3ebbcb04	0.36678326
2	0xbf91dd5c	-1.1395679
3	0xbeec8ffb	-0.46203598
4	0xbf597a10	-0.8495188
5	0x3ed69dc2	0.41917235
6	0xbf837f8c	-1.0273299
7	0xbf967c1e	-1.1756628
8	0xbf9180b3	-1.1367401
9	0x3f0f576d	0.55992776
10	0xbf895e25	-1.0731856
11	0x3f2fa633	0.68612975
12	0x3f61a521	0.8814259
13	0xbef012ff	-0.46889493
14	0x3ec31878	0.38104606
15	0xbf6c2141	-0.9223824
16	0xbec81694	-0.39079726
17	0xbf84c1f8	-1.0371695
18	0x3ed9e16e	0.42554802
19	0xbf04db0e	-0.5189675
20	0xbf040f1e	-0.51585567
21	0x3f1fb8de	0.6239146
22	0x3f4f6698	0.8101592
23	0xbf9e2d57	-1.2357587
24	0x3ca56f80	0.020194769
25	0xbf86f2a8	-1.0542803
26	0xbdafd868	-0.08586198
27	0x3e620fa1	0.22076274
28	0xbed1cdb8	-0.40977263
29	0xbf225463	-0.63410014
30	0xbf5439aa	-0.8290049
31	0x3fa2e254	1.272532

l3.bias f4 [4]
0	0xbe2c2183	-0.16809659
1	0x3c0a7fd6	0.00845333
2	0xbe7b41ea	-0.24536863
3	0x3ec01775	0.37517896
